model/model1.pt (torch, 151439 bytes, 6 tensors)

linear_layer_1.weight f4 [256, 15]
0	0xbe03d2f8	-0.12873447
1	0xbe2ff1e5	-0.17182119
2	0xbeb02c4c	-0.34408796
3	0xbe6281d0	-0.22119832
4	0x3ed6f26c	0.41981828
5	0x3e31513b	0.17316143
6	0x3e511a68	0.2042023
7	0xbd8ed844	-0.06974843
8	0x3e243f59	0.1603979
9	0x3ea45081	0.3209267
10	0xbed36469	-0.41287544
11	0x3d622008	0.05520633
12	0x3d8e9ea7	0.06963854
13	0xbeae91ac	-0.34095514
14	0xbf0781c2	-0.5293237
15	0xbeee3f05	-0.46532455
16	0x3d4f4024	0.05059828
17	0x3e20776f	0.1567056
18	0x3ea46ae0	0.3211279
19	0x3e7c3a01	0.24631502
20	0xbf119a6c	-0.56876254
21	0xbefd7c79	-0.49509028
22	0x3f00f00b	0.50366277
23	0x3ef00e19	0.46885756
24	0xbf12cb6b	-0.5734164
25	0xbedad657	-0.42741653
26	0xbe8a8676	-0.2705571
27	0xbdf91ed3	-0.121640824
28	0xbd90bb14	-0.07066932
29	0xbd2d5ddc	-0.04232584
30	0xbe5a61fe	-0.21326444
31	0xbe9f632c	-0.3113035
32	0xbe1e60da	-0.15466633
33	0x3defc5b1	0.117076285
34	0x3cbb884f	0.022892145
35	0x3ca0fb3c	0.019651048
36	0x3df7b86e	0.12095724
37	0x3d1ddd95	0.038541395
38	0x3e4856fb	0.1956443
39	0xbcc797a9	-0.02436431
40	0xbdd9fb69	-0.10643656
41	0xbe02cfa3	-0.1277452
42	0x3e37e5bb	0.17958729
43	0xbe4c5180	-0.19952965
44	0xbc7a697e	-0.01528394
45	0xbe847007	-0.2586672
46	0xbe0cd440	-0.13752842
47	0xbc671409	-0.014103898
48	0x3e18aab1	0.14908864
49	0x3e57425f	0.21021412
50	0xbe927ed6	-0.28612393
51	0xbe955a63	-0.29170522
52	0x3e9edb66	0.31026763
53	0x3e680455	0.22657903
54	0xbdf735ea	-0.1207083
55	0xbe66187e	-0.2247028
56	0xbdc10493	-0.094247006
57	0xbdc7195f	-0.09721636
58	0xbe6cf19d	-0.23139043
59	0xbe5c5067	-0.21515046
60	0xbe5eda9b	-0.21763079
61	0x3ce6d7dc	0.028179102
62	0x3ea49051	0.32141355
63	0x3e3e4909	0.18582548
64	0x3c753c9a	0.014968062
65	0xbe60fd11	-0.21971537
66	0x3d47f1eb	0.048814695
67	0xbe7ed048	-0.2488414
68	0x3e843934	0.25824893
69	0x3ed8c333	0.42336425
70	0x3e5485ab	0.20754115
71	0xbea3e544	-0.32010853
72	0xbe14b208	-0.14521039
73	0xbd7ecad2	-0.062205143
74	0xbdefe0a1	-0.117127664
75	0xbe8f0409	-0.27932766
76	0xbdb1c907	-0.08680921
77	0xbf170d0d	-0.5900429
78	0x3e6b980a	0.23007217
79	0xbda86ab5	-0.08223478
80	0x3e8c6608	0.27421594
81	0xbea75c78	-0.32687736
82	0x3ea7a2ff	0.32741544
83	0xbeaa586d	-0.3327059
84	0xbd3038aa	-0.04302279
85	0xbd403cc7	-0.04693296
86	0xbeb240eb	-0.34815153
87	0x3cbaa0fb	0.02278184
88	0x3ce274fb	0.027643671
89	0xbf0277e8	-0.5096421
90	0x3d40a9cd	0.047036935
91	0x3e014f6a	0.1262795
92	0x3d800fc1	0.06253005
93	0x3dd7660e	0.10517512
94	0xba44901c	-0.00074982806
95	0xbc303415	-0.010754605
96	0x3dcd3ee6	0.100217625
97	0xbe7b0b2b	-0.24515979
98	0xbe69434e	-0.22779581
99	0xbbbae67b	-0.005703745
100	0xbe169590	-0.14705491
101	0xbdfc7d4f	-0.12328588
102	0xbc3f841b	-0.011689211
103	0xbdce9930	-0.10087812
104	0xbd6586e1	-0.056036834
105	0xbee69944	-0.45038807
106	0x3dfffe83	0.12499716
107	0x3d40bb70	0.047053754
108	0xbe8d45db	-0.27592358
109	0xbe30ed4e	-0.17278025
110	0x3e6bc068	0.23022616
111	0x3e6647e2	0.22488359
112	0xbdd6338b	-0.1045905
113	0xbe0d0999	-0.13773192
114	0x3eda2a59	0.42610434
115	0x3e9ca45d	0.3059415
116	0x3cfd5786	0.030925523
117	0x3dee3e9a	0.11633034
118	0xbe12e179	-0.14343823
119	0x3dcedaae	0.101003036
120	0xbd230b42	-0.03980566
121	0xbd213180	-0.039353848
122	0xbee593e0	-0.44839382
123	0xbe728d24	-0.23686653
124	0xbd81e3bd	-0.06342266
125	0xbebc781d	-0.3681039
126	0x3e4ee23e	0.20203492
127	0xbeaea8d1	-0.34113172
128	0x3e563b46	0.20921049
129	0xbecb6614	-0.39726317
130	0x3ccd3151	0.02504793
131	0xbec10049	-0.3769553
132	0xbe7141c3	-0.23560242
133	0xbde1cef4	-0.11025801
134	0x3de657b8	0.112472
135	0xbe5fe4b6	-0.2186459
136	0xbdcda21f	-0.10040688
137	0xbe12af50	-0.14324689
138	0x3eae15ee	0.34001106
139	0xbeadb19d	-0.3392457
140	0xbe84ace3	-0.25913152
141	0x3e8d163c	0.27556026
142	0xbe92101d	-0.28527918
143	0x3e99bb71	0.3002582
144	0x3eb4778e	0.35247463
145	0xbe9cff8b	-0.30663714
146	0x3d9189f7	0.07106393
147	0x3e1a76bf	0.1508436
148	0xbde8edf7	-0.11373513
149	0xbd9d7519	-0.0768835
150	0x3e1bd086	0.15216264
151	0xbbb917c7	-0.0056485864
152	0x3eaf7998	0.34272456
153	0x3d9846f6	0.0743541
154	0x3df9c523	0.12195804
155	0xbd2b49a4	-0.041818276
156	0x3e523307	0.20527278
157	0xbc76ef2f	-0.015071674
158	0xbe84679a	-0.25860292
159	0xbe710c10	-0.23539758
160	0xbd6f5e1f	-0.05843937
161	0x3db8106f	0.089875095
162	0xbe944c19	-0.28964308
163	0x3e12a56f	0.1432092
164	0x3e18a26c	0.14905709
165	0x3e274041	0.16333105
166	0xbf088bfb	-0.53338593
167	0x3ea7f74f	0.3280587
168	0xbde9b319	-0.11411113
169	0xbf50292b	-0.8131282
170	0xbe8e7627	-0.27824518
171	0x3e85d5f4	0.26139796
172	0x3eb4d11b	0.35315785
173	0xbecf5e90	-0.40501833
174	0xbee58bed	-0.44833317
175	0xbe8a1d05	-0.26975265
176	0xbdf134d5	-0.11777655
177	0xbdddfc90	-0.10839188
178	0x3bcbd8c9	0.006220911
179	0x3d4e22a3	0.050326
180	0x3dcc06da	0.09962244
181	0xbd9dce4e	-0.07705365
182	0x3ce151c8	0.027504817
183	0x3de20fca	0.11038168
184	0xbe816105	-0.25269333
185	0xbdc09bdb	-0.09404727
186	0x3d961c4f	0.07329618
187	0x3d92f981	0.07176495
188	0xbe7c8b34	-0.24662477
189	0xbe36bd96	-0.17845759
190	0xbdeeac15	-0.11653916
191	0x3d0512b4	0.03248854
192	0x3baa6046	0.005199465
193	0xbe5703d2	-0.20997551
194	0xbe60d71a	-0.21957055
195	0xbdfd7d68	-0.12377435
196	0x3ec9022f	0.39259478
197	0x3db90367	0.09033852
198	0x3d9cbb0e	0.07652865
199	0xbd22b38f	-0.03972202
200	0xbbdd1eda	-0.0067480626
201	0xbe46173b	-0.19344799
202	0x3ce2d10a	0.027687568
203	0xbe51e8ea	-0.20499006
204	0xbec1ea73	-0.37874183
205	0xbc3cbe78	-0.011520021
206	0x3e1aca77	0.15116297
207	0x3e66386b	0.22482459
208	0x3e793552	0.24336746
209	0xbe033ce5	-0.12816198
210	0xbe0eaaca	-0.13932338
211	0x3daf5808	0.085617125
212	0xbddacc86	-0.10683541
213	0x3e804406	0.25051898
214	0xbe08b7c7	-0.13351355
215	0xbe391c6a	-0.18077245
216	0x3ee0618f	0.4382443
217	0xbe044429	-0.12916626
218	0x3eb2af0b	0.34899172
219	0x3e56f132	0.20990446
220	0xbea5ae8b	-0.32359728
221	0xbd6e4f4a	-0.058181085
222	0x3e531b5f	0.2061591
223	0xbe201d0f	-0.15636085
224	0xbd47bc52	-0.04876358
225	0x3d98b272	0.07455911
226	0xbd0bf04b	-0.034164708
227	0xbe0f5f49	-0.14001192
228	0x3d3b4ce9	0.045727644
229	0xbe6c2831	-0.23062207
230	0xbd87651b	-0.06611081
231	0xbd07d5da	-0.03316293
232	0xbdad1be2	-0.08452584
233	0xbda56d5a	-0.08077498
234	0xbe01e84e	-0.12686273
235	0xbe047eb5	-0.1293896
236	0xbe9d847f	-0.3076515
237	0x3e342453	0.17591982
238	0x3d92702a	0.071503
239	0xbe80d003	-0.251587
240	0x3c94a93b	0.018147102
241	0x3ce715df	0.028208671
242	0xbea3cd66	-0.31992644
243	0x3d128ddc	0.03577982
244	0x3c996bbb	0.018728128
245	0xbd1651d5	-0.036699135
246	0xbe31ca68	-0.17362368
247	0xbdb498de	-0.088182196
248	0xbc0a374f	-0.008436038
249	0xbe1cb4e2	-0.15303376
250	0xbe5be21c	-0.21472973
251	0xbe50921c	-0.20368236
252	0xbe219efa	-0.15783301
253	0xbe4cc0c3	-0.19995408
254	0xbe4c8f44	-0.19976526
255	0x3d1eb54d	0.03874712

linear_layer_1.bias f4 [256]
0	0x3dd32c22	0.10311152
1	0xbcb9f4e5	-0.022699783
2	0xbea43ddd	-0.32078448
3	0xbd43a6b5	-0.047766406
4	0xbed79156	-0.4210307
5	0x3b990d0e	0.0046707457
6	0xbe6aff93	-0.22949056
7	0xbe1c0b99	-0.15238799
8	0x3e0d7c06	0.13816842
9	0xbe19ccb0	-0.15019488
10	0xbd691804	-0.05690767
11	0xbe076289	-0.13221182
12	0xbed72482	-0.4202004
13	0xb96acda4	-0.00022392586
14	0xbe922819	-0.28546217
15	0xbea79e41	-0.32737926
16	0xbdc6a214	-0.09698883
17	0xbe69d8fc	-0.22836679
18	0xbdf552b4	-0.11978665
19	0xbd0278f5	-0.031853635
20	0xbdf44023	-0.119262956
21	0xbdf02184	-0.117251426
22	0x3d960a12	0.073261395
23	0xbe470a47	-0.19437514
24	0xbe05ae66	-0.13054809
25	0xbc6a80d1	-0.014312939
26	0xbdbd07db	-0.09230014
27	0x3c910315	0.017701665
28	0xbe74ea33	-0.23917465
29	0xbe35b311	-0.1774409
30	0x3dd635c0	0.10459471
31	0xbe71143f	-0.2354288
32	0xbe175023	-0.14776663
33	0x3d5113d7	0.05104431
34	0xbe9f45cd	-0.3110794
35	0xbe80b941	-0.25141338
36	0x3e1bf626	0.15230617
37	0xbe87e276	-0.26539963
38	0xbd398542	-0.0452931
39	0xbdbf2350	-0.09332907
40	0x3cd3521f	0.025795994
41	0x3baf4333	0.005348587
42	0xbc62b733	-0.013837623
43	0x3dfeb316	0.12436502
44	0xbe8f4bcd	-0.2798752
45	0xbea27aea	-0.317344
46	0xbdf29cc6	-0.118463084
47	0xbced5cf3	-0.028974986
48	0x3dace297	0.08441656
49	0x3db0ce9f	0.0863316
50	0xbe3c7c02	-0.1840668
51	0x3dfc6f5a	0.12325926
52	0xbde6a8b8	-0.11262649
53	0x3cf3ac1e	0.029745158
54	0xbe8e77f5	-0.27825895
55	0x3dd2afd3	0.10287442
56	0xbe0653f0	-0.13117957
57	0xbe8a7b5d	-0.27047244
58	0xbe974337	-0.29543468
59	0xbcff6e1d	-0.031180436
60	0xbde4bbe0	-0.11168647
61	0xbea97001	-0.33093265
62	0x3e4473eb	0.19184844
63	0xbdd93fb4	-0.106078535
64	0x3d9d4a2f	0.07680165
65	0x3c0533df	0.008130043
66	0xbdb4f30a	-0.088354185
67	0x3d0b9844	0.03408076
68	0xbe5b9f07	-0.21447383
69	0x3e7bcbb4	0.24589425
70	0xbdd44227	-0.1036418
71	0xbc509dae	-0.012732906
72	0xbe6fa840	-0.23404026
73	0x3cb0a935	0.02156506
74	0xbd55d4b7	-0.052204814
75	0x3cbb0423	0.022829121
76	0xbe812d22	-0.25229746
77	0xbdfc7b5a	-0.12328215
78	0xbd0ff914	-0.03514965
79	0xbea85ded	-0.3288416
80	0xbd75babe	-0.059992544
81	0xbde756c4	-0.11295846
82	0xbdfa2553	-0.1221415
83	0x3cd4b28f	0.02596405
84	0xbda35d57	-0.079767875
85	0xbe9241eb	-0.28565916
86	0xbdcece4f	-0.10097944
87	0xbe01d3cf	-0.12678455
88	0x3ce64547	0.028109206
89	0x3cca3493	0.024683272
90	0xbe54602f	-0.20739816
91	0x3d551f26	0.05203166
92	0xbd8af4ac	-0.06784949
93	0x3cb15591	0.021647247
94	0xbd846104	-0.06463817
95	0xbe13b64f	-0.14425014
96	0xbea66574	-0.32499278
97	0x3dd03fc6	0.10168414
98	0xbbc23373	-0.0059265434
99	0xbe1d01dd	-0.15332742
100	0xbe47bfe0	-0.19506788
101	0xbd64276f	-0.05570167
102	0x3e3e8ee5	0.18609197
103	0xbd4c235c	-0.04983841
104	0x3e1cfbd5	0.15330441
105	0x3e7bca8e	0.24588987
106	0x3dbe6dc3	0.09298279
107	0xbe244a38	-0.16043937
108	0xbe1289ef	-0.1431043
109	0x3cccf92e	0.025021162
110	0x3d42fd71	0.04760498
111	0xbe2a401d	-0.1662602
112	0x3d86ed33	0.06588211
113	0xbec70112	-0.38868004
114	0xbe446747	-0.19180022
115	0xbe8cb3ce	-0.2748093
116	0xbdf82b1c	-0.121175975
117	0x3dbff4e7	0.09372883
118	0xbe037689	-0.12838186
119	0xbcbd9114	-0.023140468
120	0xbd4093fc	-0.04701613
121	0xbe943fb4	-0.28954852
122	0xbe83d998	-0.25751948
123	0xbe7f672e	-0.24941704
124	0xbe63b78b	-0.22237985
125	0x3d36d07e	0.044632427
126	0x3d85b21f	0.065281145
127	0x3e3ba98d	0.18326397
128	0xbe04690a	-0.12930694
129	0xbe8d185c	-0.27557647
130	0x3da88d7e	0.082301125
131	0xbe25c697	-0.16189037
132	0xbcb54e6e	-0.022132125
133	0xbecf1ce0	-0.40451717
134	0xbe855921	-0.26044562
135	0xbeebcbeb	-0.46054015
136	0xbe7813ab	-0.24226253
137	0x3e182086	0.14856157
138	0xbe03ec5b	-0.12883131
139	0x3e139d13	0.14415388
140	0xbe5e7f29	-0.21728195
141	0x3d218c1c	0.03944026
142	0xbe1496c4	-0.14510638
143	0xbe020cfd	-0.12700267
144	0xbe624fbe	-0.22100732
145	0xbea38d50	-0.3194375
146	0xbc42b9aa	-0.011885086
147	0xbe8b74c4	-0.27237523
148	0xbda0fd65	-0.07860831
149	0xbe056592	-0.13027027
150	0xbdf9d669	-0.121990986
151	0x3d36f086	0.044662975
152	0x3eb89c24	0.36056626
153	0xbd35c125	-0.04437365
154	0xbc122ec2	-0.008922281
155	0x3bb0f5da	0.0054004015
156	0xbe10e9dd	-0.14151712
157	0x3a018b77	0.00049417414
158	0xbe4df495	-0.20112832
159	0xbdba1bf1	-0.09087361
160	0xbe970ede	-0.2950353
161	0xbec5d1ef	-0.3863673
162	0xbe4000bf	-0.18750285
163	0x3e66e41c	0.22547954
164	0xbde0488a	-0.10951336
165	0xbe60b6d8	-0.2194475
166	0xbe80fc29	-0.25192383
167	0xbb7b0117	-0.003830021
168	0x3a685d2b	0.0008863981
169	0x3db5d8ef	0.088792674
170	0x3da714e2	0.0815828
171	0xbdb6039c	-0.08887407
172	0xbe38feed	-0.18065996
173	0xbd85533e	-0.06510018
174	0xbd95685e	-0.07295297
175	0xbb0090a3	-0.001961746
176	0xbe9185a8	-0.28422284
177	0xbe735a31	-0.23764874
178	0x3db4921f	0.08816933
179	0xbe721da0	-0.23644114
180	0x3ea60389	0.32424572
181	0x3d2505f0	0.040288866
182	0x3e17f1eb	0.14838378
183	0xbe949a03	-0.29023752
184	0xbdc80fa1	-0.09768606
185	0xbe932dae	-0.28745788
186	0x399f96bd	0.00030439152
187	0xbe49c80f	-0.19705223
188	0xbe8f0275	-0.27931562
189	0xbdd8ad80	-0.105799675
190	0xbdb5ef7b	-0.08883568
191	0x3df77969	0.12083704
192	0xbe90be3b	-0.28270134
193	0x3b84544c	0.0040383693
194	0x3e8399e3	0.25703344
195	0xbe5867eb	-0.21133392
196	0xbd21a834	-0.03946705
197	0xbe506120	-0.2034955
198	0x3cc82584	0.024431951
199	0xbe1de21a	-0.15418282
200	0xbe1867f2	-0.14883402
201	0x3d5b134e	0.053485207
202	0x3e2941ec	0.16529053
203	0xbe82c6bd	-0.2554225
204	0x3ac8952c	0.0015303246
205	0xbe004e7c	-0.1252994
206	0xbd9cc9c8	-0.07655674
207	0x3c27fd16	0.0102532115
208	0xbe859e87	-0.2609751
209	0xbe60c3aa	-0.2194964
210	0xbc98bf2f	-0.018645851
211	0x3ec056f6	0.37566346
212	0x3e2193cb	0.15779035
213	0x3d9cd0fe	0.076570496
214	0xbe7854e8	-0.24251139
215	0x3e2ca42b	0.168595
216	0xbe12c0fa	-0.14331427
217	0x3e38a8d4	0.18033153
218	0xbeaea5ed	-0.34110966
219	0x3e32fda3	0.17479567
220	0xbe0656eb	-0.13119094
221	0xbd2bd561	-0.04195154
222	0xbe384753	-0.17995958
223	0xbe63356b	-0.22188346
224	0xbe1ca065	-0.1529556
225	0xbbd637c8	-0.0065374114
226	0xbe9d897a	-0.3076895
227	0xbeb9830f	-0.36232802
228	0xbe8d452a	-0.2759183
229	0xbc923337	-0.017846687
230	0x3dd7960d	0.10526667
231	0xbedcaab6	-0.43098992
232	0xbddbe39d	-0.10736773
233	0xbe15b564	-0.14619976
234	0xbde22ace	-0.110433206
235	0xbd9329fe	-0.07185744
236	0xbe42c25a	-0.19019452
237	0xbe711324	-0.23542458
238	0xbe68611e	-0.22693297
239	0xbd329ba1	-0.04360545
240	0xbd309d8d	-0.043119002
241	0x3dcbc6ab	0.09950002
242	0xbe863b27	-0.26217005
243	0xbdd7a2f7	-0.1052913
244	0xbdecf5b6	-0.11570303
245	0xbe7c1016	-0.24615511
246	0xbcf3f139	-0.02977811
247	0xbd27c24b	-0.040956777
248	0xbda1ee5a	-0.0790679
249	0xbe9a078b	-0.3008388
250	0x3b83028f	0.0039981077
251	0xbe53fefc	-0.20702738
252	0xbea03dd9	-0.31297186
253	0xbe3149f7	-0.17313372
254	0xbe806829	-0.25079468
255	0xbcb1339a	-0.02163105

linear_layer_2.weight f4 [128, 256]
0	0xbd90c2aa	-0.07068379
1	0x3d62274b	0.055213254
2	0xbd954c12	-0.072899
3	0x3a668d48	0.0008794856
4	0xbd82e18a	-0.063906744
5	0xbd6fa9ab	-0.058511417
6	0xbd8a17c7	-0.067428164
7	0xbdb21649	-0.08695657
8	0x3ce576e1	0.028010787
9	0xbd30d6dd	-0.04317366
10	0xbd2c7c74	-0.042110875
11	0x3d599b4b	0.053126615
12	0xbca9c294	-0.020722665
13	0xbd0b6446	-0.034031175
14	0xbd8d84e6	-0.06910114
15	0x39f6b006	0.00047051924
16	0xbd3e5f95	-0.046477873
17	0x3c344980	0.011003852
18	0xbccdde97	-0.025130553
19	0xbcfb9fc4	-0.03071583
20	0xbcba3a31	-0.022732826
21	0x3d2edb9d	0.04268991
22	0xbd85de99	-0.06536598
23	0xbd52fb02	-0.05150891
24	0x3ce34939	0.027744876
25	0xbdaa9fbf	-0.083312504
26	0xbd610400	-0.054935455
27	0xbd520f02	-0.051283844
28	0x3cc88340	0.024476647
29	0xbccc9b49	-0.02497639
30	0xbc94172c	-0.018077455
31	0xbd30b8d5	-0.04314502
32	0xbd027d41	-0.031857733
33	0x3bd819ab	0.0065948567
34	0xbd50fae6	-0.051020525
35	0xbdb0ffe9	-0.08642561
36	0xbac48edb	-0.0014996188
37	0xbcf58a0a	-0.029973049
38	0xbbd700ad	-0.00656136
39	0x3d457fef	0.04821771
40	0xbcd15a92	-0.025555883
41	0xbc0c93f8	-0.0085802
42	0xbd678ee0	-0.05653274
43	0xbd94be3b	-0.07262846
44	0xbd362595	-0.044469435
45	0xbd49d7f0	-0.0492782
46	0xbd2086f9	-0.03919122
47	0x3cf215b1	0.029551359
48	0xbd41ac3e	-0.047283404
49	0xbce6ad56	-0.028158825
50	0xbd84dc35	-0.06487314
51	0x3cac1450	0.02100578
52	0xbbf1c701	-0.0073784594
53	0x3be01c9d	0.0068393485
54	0x3c567f88	0.013091929
55	0xbcba1b27	-0.022718025
56	0xbd89ab9d	-0.06722186
57	0xbcfdec19	-0.03099637
58	0x3d2003fb	0.039066296
59	0xbd814172	-0.06311311
60	0xbc3f69c0	-0.011682928
61	0x3a8411ad	0.0010076069
62	0x3c38ffe8	0.011291482
63	0x3cdee95d	0.027210886
64	0xbd6769da	-0.056497432
65	0xbd18c246	-0.03729465
66	0xbccc5425	-0.024942467
67	0x3d65ea59	0.056131694
68	0x3c4e0c25	0.012576138
69	0x3c2dca19	0.010607266
70	0x3cdfb0fd	0.027306074
71	0x3cac1574	0.021006323
72	0x3ce98c1c	0.028509192
73	0x3c33f35e	0.010983316
74	0xbc31b2f6	-0.01084589
75	0x3c625835	0.0138149755
76	0xbcd90087	-0.02648951
77	0x3ba1f65b	0.004942698
78	0x3cea9afd	0.028638357
79	0xbd117357	-0.035510387
80	0xbcf293b0	-0.029611439
81	0x3cb96207	0.02262975
82	0xbd8e92f7	-0.06961625
83	0x3c1fcd68	0.0097535625
84	0x3cbcb8d9	0.023037361
85	0xbce42dcf	-0.027853874
86	0xbb45eb64	-0.0030200118
87	0xbcbfe141	-0.02342284
88	0xbcd5f61d	-0.026118333
89	0x3cbc6685	0.022998104
90	0x3cf71680	0.030162096
91	0x3ccc0bab	0.024907907
92	0x3d16283d	0.036659468
93	0xba21f85b	-0.00061786704
94	0x3c3521a4	0.011055384
95	0x3d31c4f2	0.043400712
96	0xbd269c33	-0.040676307
97	0x3c437cfe	0.011931656
98	0x3c2aef74	0.010433067
99	0xbd1b5024	-0.037918225
100	0x3cf8296a	0.030293185
101	0xbd96d948	-0.07365662
102	0xbd60a3ae	-0.054843597
103	0xbc981737	-0.018565757
104	0xba329789	-0.00068127416
105	0xbcb4bf8b	-0.022063991
106	0xbce08c85	-0.027410755
107	0xbd369243	-0.04457308
108	0xbd3fd485	-0.046833534
109	0xbb8e6deb	-0.0043465993
110	0xbd694de7	-0.05695906
111	0xbd5030f5	-0.05082794
112	0xbd9757ee	-0.07389818
113	0xbc698db8	-0.01425498
114	0x3cefa381	0.02925277
115	0x3d2ec16c	0.04266493
116	0xbd43fcb7	-0.04784843
117	0x3cde52db	0.027139118
118	0x3d4e2cd8	0.050335735
119	0xbd9500d6	-0.0727555
120	0xbd11e495	-0.035618383
121	0x3c112e82	0.008861186
122	0xbca3deee	-0.020003762
123	0xbce7875c	-0.028262787
124	0x3c47d61c	0.012197044
125	0xbd7084e6	-0.05872049
126	0xbdb07d4b	-0.08617648
127	0x3b5202e7	0.0032045187
128	0xbcd20a39	-0.02563964
129	0x3c430376	0.011902681
130	0xbdae4ab4	-0.08510342
131	0xbbd718ef	-0.0065642516
132	0x3d508df5	0.05091663
133	0x3b8bdd06	0.0042682914
134	0xbbea3ca9	-0.0071483445
135	0xbc7e5bc6	-0.01552481
136	0xbb9e949a	-0.004839492
137	0xbd058ef4	-0.032607034
138	0x3c9e5a29	0.019330101
139	0xbdcab350	-0.098974824
140	0xbd774ae6	-0.060374163
141	0x3d16d00e	0.03681951
142	0x3ae44a3c	0.0017417143
143	0xbd33ccde	-0.04389655
144	0xbd8120ed	-0.06305108
145	0x3cb2e1be	0.021836158
146	0xbd9b3057	-0.075775795
147	0xbd946535	-0.07245866
148	0xbd1b7fe3	-0.03796376
149	0xbd700e2b	-0.05860726
150	0x39f33482	0.00046387693
151	0xbd98c4c1	-0.07459403
152	0x3bcbb710	0.006216891
153	0xbdaa59c2	-0.08317901
154	0xbcabc3d1	-0.020967396
155	0xbc710d26	-0.0147126075
156	0xbd0280df	-0.031861182
157	0xbd49722d	-0.049181152
158	0xbd79aa74	-0.060953572
159	0xbcc91704	-0.024547108
160	0xbcd4a72e	-0.025958624
161	0x3b078cb8	0.002068324
162	0xbd93c087	-0.07214456
163	0xbd693888	-0.056938678
164	0xbdc4936f	-0.09598433
165	0xbc55e4f1	-0.013055072
166	0xbd7b24ae	-0.061314277
167	0xbc9f7b31	-0.019467922
168	0xbc88f91b	-0.016720345
169	0x3c193c5c	0.00935277
170	0x3ca03cfb	0.019560328
171	0xbdc1d1df	-0.09463858
172	0xbd69913d	-0.057023276
173	0xbd0f76f0	-0.035025537
174	0xbd657df8	-0.056028336
175	0xbc962d31	-0.018332096
176	0x3b96982b	0.0045957766
177	0x3d60a12c	0.054841205
178	0xbc9af00a	-0.018913288
179	0x3cbc4035	0.022979835
180	0xbbf6bc4b	-0.0075297705
181	0x3bac2787	0.0052537355
182	0x3c93d2bd	0.018044824
183	0xbd1b5b95	-0.037929136
184	0x3d628b6d	0.055308748
185	0x3d1185f5	0.035528142
186	0x3a9977c3	0.0011708665
187	0x3ceaf100	0.02867937
188	0xbdab3b58	-0.08360928
189	0xbcaf694c	-0.021412514
190	0xbc87c6f0	-0.016574353
191	0xbc13c1a4	-0.0090183355
192	0x3ceb3cfd	0.028715605
193	0x3c668083	0.0140687255
194	0xbd64ec0c	-0.055889174
195	0x3c02ad19	0.00797584
196	0xbd124c25	-0.03571715
197	0x3d6b47cb	0.057441514
198	0xbc7b3e23	-0.015334639
199	0xbdc4500c	-0.0958558
200	0x3c69916c	0.014255863
201	0xbc437213	-0.011929053
202	0xbd9e4b54	-0.077292114
203	0x3caf4b7f	0.021398304
204	0xbc5135b1	-0.012769149
205	0xbdc6adea	-0.0970114
206	0xbbbb456f	-0.0057150642
207	0xbc3c8793	-0.011506933
208	0x3d1d2e7d	0.038374413
209	0xbb1d6cc9	-0.002402114
210	0xbdac365f	-0.08408808
211	0xbdcded27	-0.10054999
212	0xbd831574	-0.06400576
213	0x3bf7ea3d	0.007565765
214	0xbc1397eb	-0.009008388
215	0xbd95935f	-0.073034994
216	0xbd7dd623	-0.061971795
217	0xbc8e2d31	-0.017355533
218	0x3d78d7d9	0.060752723
219	0xbdb221b5	-0.08697835
220	0x3c4c9c7d	0.012488482
221	0xbd0ff79d	-0.03514825
222	0xbd667726	-0.056265973
223	0x3c5503f2	0.013001429
224	0xbd714752	-0.058905907
225	0xbbca14a9	-0.0061670137
226	0xbd50bd8e	-0.050962023
227	0x3bac2aec	0.00525414
228	0xbcf1198c	-0.029431127
229	0x3cfc3e29	0.030791359
230	0x3cfb3412	0.030664477
231	0x3cc3ce00	0.02390194
232	0x3c992429	0.018694
233	0x3d03e72b	0.03220288
234	0xbd31897e	-0.043344013
235	0xbda13059	-0.0787055
236	0xbd4ab3c0	-0.04948783
237	0x3d66f2c3	0.05638386
238	0xbc69093f	-0.014223396
239	0x3c9c59b5	0.019085744
240	0x3cbf850e	0.023378875
241	0xbd3e48a4	-0.046455994
242	0x3d369507	0.044575717
243	0xbccf4c41	-0.025304915
244	0xbd85c195	-0.065310635
245	0xbd4460db	-0.04794393
246	0x3d1ab13b	0.037766676
247	0xbd3cae45	-0.046064634
248	0xb9f13050	-0.00046003098
249	0x3ba81f00	0.0051306486
250	0xbd2c060d	-0.041997958
251	0x3ccec984	0.025242575
252	0xbd2207fe	-0.039558403
253	0xbd5ba35b	-0.053622585
254	0x3d3eae26	0.0465528
255	0xbc9d254c	-0.019182824

linear_layer_2.bias f4 [128]
0	0xbd93755f	-0.07200121
1	0x3aeeab22	0.001820896
2	0x3be624ed	0.007023445
3	0x3de05cc8	0.109551966
4	0xb94fc604	-0.00019814825
5	0x3ce79536	0.028269392
6	0x3da174b6	0.07883589
7	0xbe0fd40f	-0.14045738
8	0xbd7e8165	-0.06213512
9	0x3d9f14bb	0.07767626
10	0x3ebe499a	0.3716553
11	0xbd2b9758	-0.04189238
12	0xbd380f97	-0.044936743
13	0xbd6b50b2	-0.057450004
14	0x3c7453d7	0.014912567
15	0xbdd86339	-0.105658
16	0x3c1d2a5f	0.009592622
17	0xbc47e446	-0.012200421
18	0x3d374a12	0.044748373
19	0x3ea22564	0.31669152
20	0x3c98a1f1	0.018631907
21	0xbb6cb105	-0.0036116254
22	0x3db87530	0.09006727
23	0xbe3e0d2c	-0.18559712
24	0x3e384c23	0.17997794
25	0xbd406ad9	-0.046976898
26	0x3df34bb2	0.11879672
27	0x3da82137	0.0820946
28	0xbc2e9587	-0.010655767
29	0x3e56f276	0.20990929
30	0xbc21110b	-0.0098307235
31	0xbc285f9b	-0.0102767
32	0xbdfbb4b8	-0.12290329
33	0xbdc9c1aa	-0.098513916
34	0x3e21ba9e	0.15793845
35	0x3db37357	0.08762234
36	0xbdea1f4f	-0.11431753
37	0xbcd4411e	-0.025909957
38	0x3e49082c	0.19632024
39	0xbd2b535c	-0.041827545
40	0xbd474579	-0.04865024
41	0xbd4fe244	-0.050752893
42	0xbcf52de4	-0.029929109
43	0xbcd7e131	-0.026352497
44	0xbdca07e9	-0.0986479
45	0x3a52a4bd	0.0008035412
46	0xbd207015	-0.03916939
47	0x3e78dc34	0.24302751
48	0x3dddbd33	0.108271025
49	0xbd74d11c	-0.059769735
50	0xbdb05c1c	-0.086113185
51	0x3c1cc5d3	0.009568649
52	0xbd112e61	-0.03544462
53	0x3f1d187b	0.6136548
54	0xbcc97821	-0.024593415
55	0xbd418066	-0.04724159
56	0x3dc4f7fe	0.09617613
57	0xbdbdfba5	-0.09276513
58	0xbd9c65cd	-0.076366045
59	0xbb070462	-0.0020601978
60	0x3e9b67c8	0.30352616
61	0xba1ef8e6	-0.00060643104
62	0xbb7c51d7	-0.0038500929
63	0x3b8e1575	0.004336054
64	0x3d99b762	0.075056806
65	0xbd93287a	-0.07185455
66	0xbbc3df2c	-0.005977532
67	0x3e9be74e	0.3044991
68	0xbd1a8dff	-0.037733074
69	0xbd691792	-0.056907244
70	0xbdaef3f9	-0.08542628
71	0xbd5167c8	-0.051124364
72	0xbd13bd84	-0.036069408
73	0x3e07fbe5	0.13279684
74	0xbb79eb3b	-0.0038134593
75	0x3e2515d5	0.1612161
76	0xbd1db26d	-0.03850024
77	0x3e9dc8ea	0.30817348
78	0xbdb66870	-0.089066386
79	0x3ece582d	0.40301648
80	0x3db4fa49	0.088368006
81	0x3c86fe66	0.016478729
82	0xbd73d989	-0.05953363
83	0x3d45e537	0.0483143
84	0x3dff8141	0.12475825
85	0x3babbed2	0.0052412534
86	0x3bae8273	0.0053256094
87	0xbdc7665c	-0.097363204
88	0x3dc4c032	0.09606971
89	0xbd4fc92f	-0.050728973
90	0x3dde8800	0.10865784
91	0xbd623b59	-0.05523238
92	0xbd37e40d	-0.04489522
93	0xbd07392e	-0.033013515
94	0xbbaf3379	-0.005346712
95	0xbe1047a8	-0.14089835
96	0x3c3926aa	0.011300722
97	0xbc522d26	-0.012828147
98	0x3c06e165	0.008232449
99	0xbd90384b	-0.07041987
100	0x3cbbd8a7	0.022930456
101	0xbce09288	-0.027413622
102	0xbca3c7f9	-0.019992815
103	0xbdd3d1c4	-0.10342744
104	0x3d3cdaee	0.046107225
105	0xbc914027	-0.017730786
106	0xbdc06201	-0.09393693
107	0xbdbc427a	-0.09192367
108	0x3e6c6038	0.2308358
109	0xbda58b0a	-0.0808316
110	0xbc84f7fb	-0.016231528
111	0x3c8ce5ea	0.017199475
112	0x3e1ecfbe	0.15508935
113	0xbc9d5ff0	-0.019210786
114	0x3e247709	0.16061033
115	0xbd92e527	-0.071726136
116	0xbde693de	-0.11258672
117	0xb9c9bae7	-0.0003847696
118	0xbce4e982	-0.027943376
119	0x3dc66a0b	0.09688195
120	0xbd8e309f	-0.069428675
121	0xbe051dc7	-0.1299964
122	0xbd39a9c6	-0.045327924
123	0x3ca2769a	0.019831944
124	0xbda02ee7	-0.07821446
125	0x3d2d2b4b	0.042277616
126	0xbdca6b36	-0.0988373
127	0xbd9d27ad	-0.07673583

linear_layer_3.weight f4 [3, 128]
0	0x3ca59167	0.020210935
1	0x3cac826a	0.02105828
2	0x3cc96b17	0.024587197
3	0x3d66f57a	0.05638645
4	0x3dc13641	0.09434176
5	0xbd9ea319	-0.07745952
6	0x3e669063	0.22516017
7	0x3d943384	0.07236388
8	0x3d01b1ce	0.03166371
9	0xbd0c2bd8	-0.0342215
10	0x3e76a16b	0.24085014
11	0x3c09e7f4	0.008417118
12	0x3e560b20	0.20902681
13	0x3c91b0c3	0.017784482
14	0xbdc1e8b2	-0.09468211
15	0x3ab3ce18	0.0013718037
16	0x3d6aeb17	0.057353105
17	0x3cc26867	0.023731424
18	0xbc3ebcfb	-0.011641736
19	0xbcf134ab	-0.02944406
20	0xbd0e8f9e	-0.034804933
21	0x3d6593db	0.05604921
22	0xbd1de467	-0.0385479
23	0x3ed1bc26	0.40963858
24	0xbd6b2457	-0.057407703
25	0x3c9da349	0.0192429
26	0xbd8377b3	-0.06419315
27	0xbf28fe64	-0.6601317
28	0xbc43682e	-0.011926694
29	0x3eabf2fe	0.33583826
30	0xbcf65ceb	-0.030073604
31	0x3b1d49fb	0.0024000395
32	0x3cbc269b	0.022967627
33	0xbe305fcd	-0.17224045
34	0xbe39c62b	-0.18142001
35	0xbd50f7d6	-0.051017605
36	0x3cb93901	0.02261019
37	0x3c55b21a	0.013042951
38	0xbdb94cba	-0.090478376
39	0x3b56bc4e	0.0032766047
40	0xbd429c73	-0.047512483
41	0x3d9d552d	0.076822616
42	0xbeab8b69	-0.335048
43	0xbaeb2e29	-0.0017942834
44	0xbb912513	-0.0044294684
45	0x3bc2f3e6	0.005949485
46	0xbc8121a8	-0.015763119
47	0xbddef7e9	-0.10887129
48	0xbd4b4a3b	-0.04963134
49	0xbc87c588	-0.016573682
50	0x3a2a6ced	0.00065012166
51	0xbc247b95	-0.01003923
52	0xbac21afa	-0.0014809065
53	0xbd9dcbc0	-0.07704878
54	0xbc70f00e	-0.014705671
55	0x3d6c8b69	0.05775014
56	0xbdcd0350	-0.100103974
57	0xbc925fcd	-0.017867947
58	0x3ca0bd35	0.019621471
59	0xbc6fb6f2	-0.01463102
60	0x3eb33b4b	0.35006174
61	0x3d824686	0.063611075
62	0xbb0ed16f	-0.0021792313
63	0x3c51f769	0.012815335
64	0x3e0897a2	0.13339093
65	0xbd81c8ed	-0.06337152
66	0x3d8f45e1	0.0699575
67	0xbcaddcfa	-0.021223534
68	0x3db96c9b	0.09053918
69	0x3a9115c0	0.0011069104
70	0x3a88f953	0.0010450281
71	0x3d8f4c46	0.0699697
72	0x3c5927fe	0.013254164
73	0xbdd78163	-0.105227254
74	0xbc77745e	-0.015103428
75	0xbdfb6fb6	-0.122771665
76	0x3d3da161	0.04629648
77	0xbd688066	-0.056763075
78	0x3d7e33b3	0.062061023
79	0x3d671ed1	0.056425873
80	0xbc8e5afe	-0.017377373
81	0x3cc37678	0.023860201
82	0x3bfd5abf	0.007731765
83	0x3c5b0e26	0.0133700725
84	0x3d95e6d6	0.07319419
85	0xbd46ebe8	-0.04856482
86	0x3d21bf4d	0.03948908
87	0x3e23878c	0.15969676
88	0xbdbce8f7	-0.09224122
89	0xbd1931fe	-0.037401192
90	0x3c96c7c1	0.018405797
91	0x3d1ea2cc	0.038729474
92	0xbc856620	-0.016284049
93	0x3c598e22	0.013278516
94	0xbb1eac77	-0.0024211684
95	0xbcb08767	-0.02154894
96	0xbd9f564c	-0.07780132
97	0x3ba5cff0	0.0050601885
98	0x3be8dec9	0.007106636
99	0x3d5bd895	0.053673346
100	0x3cbf2616	0.02333359
101	0x3ac79694	0.0015227371
102	0x3ac6a73a	0.0015156039
103	0x3c16a173	0.009193766
104	0xbe8daa0f	-0.27668807
105	0x3ce2d50b	0.027689477
106	0x3d693186	0.056931995
107	0x3db295e5	0.08719996
108	0xbca92254	-0.020646252
109	0x3d09a6b8	0.03360626
110	0xbdbd3e44	-0.09240392
111	0xbd231861	-0.03981817
112	0xbd219c54	-0.039455727
113	0x3cffa3ae	0.031205978
114	0xbaa9d588	-0.0012957314
115	0x3d79b17b	0.060960274
116	0x3d7d9cdb	0.061917167
117	0x3c8a71dc	0.016899996
118	0x3d8072f0	0.062719226
119	0xbd0a6511	-0.03378779
120	0x3d936403	0.0719681
121	0xbc96872d	-0.018375004
122	0x3d161ef4	0.036650613
123	0xbce1540c	-0.027505897
124	0x3bc545fc	0.0060203057
125	0x38f32339	0.00011593704
126	0x3d7b2a17	0.061319437
127	0xbd36ac39	-0.044597838
128	0xbd54525a	-0.05183635
129	0x3d07ea8f	0.033182677
130	0x3bf34f8f	0.0074252556
131	0x3df0f88b	0.11766156
132	0x3d782ef6	0.06059166
133	0x3d4cec05	0.050029773
134	0x3d8dc5de	0.06922506
135	0xbd7241ec	-0.0591449
136	0xbdb98d9c	-0.09060213
137	0xbdd74a9d	-0.10512278
138	0x3d85ce57	0.06533497
139	0x3b8a5868	0.0042219646
140	0xbef438e1	-0.47699645
141	0x3cee2327	0.029069496
142	0x3bdf5aff	0.0068162675
143	0xbcd2307d	-0.025657887
144	0xbba247c7	-0.004952404
145	0x3d2bc3c9	0.041934762
146	0x398d9321	0.00027003235
147	0xbd2e22f5	-0.042513806
148	0x3d1545ab	0.036443394
149	0x3cad0676	0.021121245
150	0xbea96c27	-0.33090326
151	0xbb393bbd	-0.0028264367
152	0xbd9f6f2b	-0.077848755
153	0x3d28469c	0.041082963
154	0xbde2c49b	-0.11072656
155	0x3e052a13	0.13004331
156	0x3bcffcdf	0.0063472833
157	0x3e0fce96	0.1404365
158	0x3d90401b	0.07043477
159	0xbbcfcdca	-0.0063416706
160	0xbd6a5a49	-0.05721501
161	0xbe0dcd9e	-0.13847968
162	0x3d013600	0.03154564
163	0xbe374304	-0.17896658
164	0x3e66b00c	0.22528094
165	0xbc0f7f6c	-0.008758407
166	0xbdc22530	-0.09479749
167	0x3ce5c94f	0.028050093
168	0xbd120846	-0.03565242
169	0xbd6ee49e	-0.058323495
170	0x3e15e305	0.14637382
171	0xbda6c46c	-0.08142933
172	0x3c438967	0.011934615
173	0x3d3cf556	0.046132408
174	0xbd10431b	-0.035220247
175	0xbe11f6d5	-0.14254315
176	0x3c46c024	0.012130771
177	0x3ce3451f	0.02774292
178	0xbd0bb7bc	-0.03411077
179	0xbd2aafe1	-0.041671637
180	0x3d6bf979	0.057610963
181	0x3c87587a	0.016521681
182	0xbcde8aa9	-0.027165728
183	0xbc803c7d	-0.015653843
184	0xbd7033ef	-0.058643278
185	0xbb1a761c	-0.0023568934
186	0x3d8e6834	0.06953469
187	0x3d97ada4	0.07406166
188	0xbe2e232c	-0.17005605
189	0xbca7d0ff	-0.0204854
190	0xbd9635c8	-0.07334477
191	0xbd8ddb3c	-0.06926581
192	0x3ea150c1	0.31506923
193	0x3d6ac503	0.05731679
194	0x3d1e8e5a	0.038709976
195	0xbd242542	-0.040074594
196	0x3d928fd5	0.0715634
197	0x3bae41b1	0.0053178896
198	0xbd282dc6	-0.041059278
199	0x3da7d471	0.08194817
200	0x3d6d99d1	0.05800802
201	0xbe0c06f0	-0.13674521
202	0xbcfc089c	-0.030765824
203	0xbdc82bee	-0.09774004
204	0x3c8b43c0	0.01700008
205	0xbda62b27	-0.081136994
206	0x3d1a9182	0.037736423
207	0xbde33fcd	-0.110961534
208	0x3c5e2a3b	0.013559873
209	0xbec4372a	-0.38323337
210	0xbc137c3e	-0.00900179
211	0xbc02a822	-0.007974656
212	0x3dfb5de5	0.12273768
213	0x3c0be3f1	0.008538232
214	0xbd8b3de7	-0.06798916
215	0x3c3e8a1c	0.0116296075
216	0xbdb87232	-0.09006156
217	0x3c2f5492	0.0107013155
218	0xbe0132bd	-0.12617011
219	0x3d6e8b95	0.058238585
220	0xbae31589	-0.0017325144
221	0x3d80dded	0.06292329
222	0xbe0c2529	-0.1368605
223	0xbe4e3cac	-0.20140332
224	0x3d9d172c	0.07670435
225	0xbd010e7e	-0.03150796
226	0xbd5134e3	-0.051075827
227	0xbdd8666f	-0.10566413
228	0xbd3662a0	-0.04452765
229	0x3d23fbed	0.040035177
230	0x3d19509d	0.037430394
231	0xbc969170	-0.018379897
232	0x3e593f86	0.21215639
233	0xbcfb40c9	-0.03067054
234	0xbd10238f	-0.03519016
235	0xbda8775f	-0.08225893
236	0xbea336d5	-0.3187777
237	0xbc49d8c5	-0.012319748
238	0xbc838bf4	-0.016057946
239	0x3cc1c331	0.023652645
240	0xbe11c0d9	-0.14233722
241	0x3d43c5dc	0.047796115
242	0xbda93000	-0.082611084
243	0xbc7dea08	-0.015497692
244	0xbcfbe655	-0.03074948
245	0xbdd0a4a8	-0.10187656
246	0xbdc57ba1	-0.09642721
247	0x3d0b1f18	0.0339652
248	0xba1832fb	-0.00058059365
249	0xbc51a45c	-0.012795534
250	0x3d42cf74	0.047561124
251	0xbcb4fe4b	-0.022093913
252	0xbb02e316	-0.001997178
253	0xbd40749c	-0.046986207
254	0x3d6bb3d2	0.057544537
255	0xbc134cee	-0.008990509

linear_layer_3.bias f4 [3]
0	0x3e321cb9	0.1739377
1	0xbe34fa49	-0.17673601
2	0xbdde6dcd	-0.108607866
