model/model0.pt (torch, 151439 bytes, 6 tensors)

linear_layer_1.weight f4 [256, 15]
000000 a9 49 e6 bd 0c 42 3a be b0 22 9a 3e e1 58 a0 3d
       -0.11244518 -0.18189257 0.3010459 0.07829452
000010 3c 26 5c bf a5 23 77 3e c3 22 d5 be 65 e2 e4 3e
       -0.8599584 0.24134691 -0.41628084 0.44703975
000020 5b 46 02 be b0 b3 82 3e 73 06 1f bf 6d 8f 7d 3d
       -0.12722151 0.25527716 -0.62119216 0.06190436
000030 ad 44 5a be ea 5f 58 be 0c 2f 4c be ea 3a e3 3d
       -0.2131526 -0.21130338 -0.19939822 0.11095221
000040 58 ae ee 3e 7c f5 8b be a7 1a 9f 3e 21 16 b0 3d
       0.4661739 -0.27335727 0.31075022 0.08597971
000050 78 31 28 be 6c e0 cb 3e 1b 77 e2 be 1b 0d 0a 3d
       -0.16425121 0.39819658 -0.44231495 0.033703905
000060 87 36 00 bd 2d 9e bc bd 21 6a 00 3e f8 db cb 3d
       -0.031302 -0.09209857 0.12540485 0.09954065
000070 cd 74 d1 3e 49 51 b7 3c 94 1f 0e bd 9d 6a 19 bf
       0.40909424 0.022377627 -0.034698084 -0.59928304
000080 eb e0 33 be dd 45 03 bf db 8f 43 3e d9 bb 05 bf
       -0.17566268 -0.5127848 0.19097845 -0.5223976
000090 46 c9 79 3e 07 8e 68 3d 81 b6 05 bf 7a ae 3f be
       0.24393186 0.056776073 -0.52231604 -0.18718901
0000a0 26 e6 9e 3e 83 06 15 bf b8 7a 6b bd b6 07 24 bd
       0.31034964 -0.5821306 -0.05749008 -0.040046416
0000b0 3e f5 b2 bd 88 c1 11 be 6b 27 3c be 19 2d 49 3d
       -0.087381825 -0.14233983 -0.18374412 0.049115274
0000c0 73 e9 e7 3c 8e 94 54 be 20 be 14 bf fb fc 93 3d
       0.02830956 -0.20759794 -0.5810261 0.072259866
0000d0 79 bc 27 3e d9 bc 7c be 1f e8 d1 be 94 95 bd 3e
       0.1638049 -0.24681415 -0.40997407 0.37028182
0000e0 87 d2 a9 be 9b 4e dc be 46 0c ce be ff 8e 30 bd
       -0.33168432 -0.4302872 -0.4024374 -0.04310512
0000f0 4a d6 b1 be f4 4f 48 3d 29 43 d9 bd ae c6 44 3e
       -0.34733802 0.048904374 -0.10608513 0.19216415
000100 da 7e 84 bd 77 77 79 bd 8f 51 b5 3d 76 7a 87 be
       -0.064695075 -0.060904946 0.08853447 -0.26460618
000110 55 ea 11 3e c1 67 bc 3d 9f 88 49 bd af 5e 14 bf
       0.14249547 0.09199477 -0.049202558 -0.57956976
000120 87 6d 3a be 6b c3 08 be fc 95 db bd 77 eb d3 be
       -0.18205844 -0.13355796 -0.107219666 -0.41390583
000130 c9 a7 24 3e 36 85 ed be 03 30 85 3d 93 50 55 be
       0.1607963 -0.46390694 0.06503298 -0.20831518
000140 bb 6f 93 3d 8e 76 a3 be 80 53 83 3e b1 49 43 3e
       0.07199045 -0.31926388 0.25649643 0.1907108
000150 a4 c6 8e bd 18 4c 5d 3e 5a 9f 9d bd ae 86 8a 3d
       -0.069714814 0.21611059 -0.076964095 0.06763969
000160 2f f9 b6 be f1 7c d1 bd 98 4e 98 3e 0c 1d ab 3e
       -0.35736987 -0.10228909 0.29747462 0.33420599
000170 92 14 82 3d a6 1d cb 3d ae d7 61 be 0b 8e 12 bc
       0.0635158 0.09917764 -0.22054932 -0.0089449985
000180 b7 ce 80 bc a2 f5 71 be 0a 97 5c be 50 e5 be bc
       -0.01572357 -0.23628858 -0.21541992 -0.023302704
000190 75 4e cf 3d c2 64 fd 3c cd 48 44 bd 53 14 04 be
       0.10122386 0.030931834 -0.04792099 -0.12898378
0001a0 95 5f 81 3d 6b e5 46 be 0c 23 b4 3d 53 3e 0b bc
       0.06317059 -0.19423454 0.08795747 -0.008498746
0001b0 79 d0 c1 bc 8a b1 d6 bd 8c 49 aa be ee b7 16 be
       -0.023658978 -0.10483082 -0.33259237 -0.14718601
0001c0 c2 33 00 3e db bc 00 be a4 ac 96 3d 59 92 ca 3a
       0.12519744 -0.12572043 0.07357147 0.0015454992
0001d0 87 36 14 bb b7 ff 06 3e 6e 7c 2f be 99 0c 30 be
       -0.0022615509 0.13183485 -0.1713731 -0.17192306
0001e0 80 7d 1a 3c 55 a5 2c bd 3d b6 02 3f f5 e1 1a 3e
       0.009429336 -0.04214986 0.51059324 0.15125258
0001f0 87 a1 54 bb ff d7 79 3e c0 5d ce be f1 31 a5 be
       -0.003244491 0.24398802 -0.403059 -0.32264665
000200 a6 68 eb bd 0b e2 63 be 7e 1a 78 3e 0b 11 69 bc
       -0.114945695 -0.22254197 0.24228856 -0.014225255
000210 a4 00 f0 3d 2b b2 79 3e 4d 07 81 3e b3 38 e5 3d
       0.11718872 0.24384372 0.25200883 0.11192455
000220 f5 14 d6 bd f0 7b ca 3d cc 3b be be 21 15 ae be
       -0.10453216 0.098869205 -0.37154996 -0.34000495
000230 a3 da 86 bd df b0 be 3e 57 3c be 3d 6c 6d 0c 3e
       -0.065846704 0.37244317 0.09288853 0.13713616
000240 d0 93 3d be 51 dc f8 be dc 70 92 be 80 cb c0 be
       -0.18513417 -0.48605588 -0.2860173 -0.37655258
000250 9c 55 f5 be 3a 41 5b be 60 38 a1 bd 07 d4 86 3c
       -0.47916877 -0.214116 -0.07872081 0.016458524
000260 e3 ae c8 be dc 67 66 be 8b 23 34 3e d9 fe 38 3d
       -0.39195928 -0.22500557 0.17591684 0.045164917
000270 f9 4e 07 3f e4 26 a5 3e 72 5c f0 bc ea 3c 4f 3e
       0.5285488 0.32256234 -0.029340956 0.2023808
000280 58 69 c8 be 13 8f ab be 9b 80 09 3e 61 e4 e9 be
       -0.3914287 -0.33507594 0.13427965 -0.45682052
000290 c8 a7 b6 bd 4f ff 7b 3d 4c 79 e1 3e 03 7a 02 be
       -0.089187205 0.061522778 0.44037855 -0.12741856
0002a0 36 89 16 3e f8 18 57 be 48 37 2e bc 07 f5 93 3e
       0.1470078 -0.21005619 -0.010633297 0.2889788
0002b0 46 41 87 be 51 fd 05 3e a0 32 95 be 8a 56 9e 3e
       -0.26416987 0.13084914 -0.29140186 0.309254
0002c0 6a ff a6 bd 47 c4 88 3d c7 0d 84 3d ed 6b 0e 3e
       -0.08154185 0.06678062 0.0644794 0.13908358
0002d0 47 5a 89 3e f9 99 b2 be b9 4a 8e 3d 7f a1 62 3d
       0.2682669 -0.34883097 0.06947846 0.055329796
0002e0 84 e7 db be e6 33 0b be 4d 28 5a 3e fe cc 06 3e
       -0.4295007 -0.13594016 0.21304436 0.13164136
0002f0 7c 56 00 3e 7f 5d ac 3d 44 7d b7 be 8a 34 36 bd
       0.12532991 0.084162705 -0.35837758 -0.0444837
000300 b4 c8 02 bf 9e 3c dd be 7f 05 ce be c9 8b 25 bf
       -0.510875 -0.4321031 -0.40238568 -0.6466642
000310 41 50 d2 3e 5a f9 b1 3e d0 3a 48 be 04 73 88 bd
       0.41076854 0.34760553 -0.19553685 -0.066625625
000320 55 69 d4 bc 49 a9 24 be 8d c3 2b be de 21 f1 3d
       -0.025929132 -0.16080202 -0.16773815 0.11774038
000330 6d 59 08 be ee c0 76 be dc 32 a1 be 47 86 8f 3e
       -0.13315363 -0.24097034 -0.31484115 0.28032133
000340 c7 ad c4 3e 24 b6 27 3e f1 71 07 3d f1 5d e0 be
       0.38413832 0.16378075 0.033067647 -0.43821672
000350 b7 97 9b 3e 41 57 bb 3d 6c c1 ad 3e a7 7a 38 bf
       0.30389187 0.09147502 0.33936632 -0.7206215
000360 d9 e8 8d 3e 51 f9 bf 3e b8 c5 1d 3d f8 87 29 bf
       0.2771671 0.374949 0.038518637 -0.66223097
000370 06 52 f0 3e b8 65 85 be c4 5a 1e be 14 68 46 be
       0.4693758 -0.26054168 -0.15464312 -0.1937564
000380 e5 fc d1 bd 35 a0 98 be 4b 8d 3c 3d a8 16 b9 bd
       -0.10253314 -0.29809728 0.046033185 -0.090375245
000390 1f ce ad bd 6b 80 c8 bd 65 21 1a be 7f 92 e3 bd
       -0.0848658 -0.09790119 -0.15051802 -0.11111926
0003a0 06 67 38 be 4e 34 be bd ef 1d 98 3d e3 6d 84 bd
       -0.1800805 -0.0928732 0.074275844 -0.06466272
0003b0 8c 40 6c be 7a 5e 91 be 4e ad 9c be 32 69 cb be
       -0.23071498 -0.28392392 -0.3060097 -0.39728695
0003c0 7a 75 87 3e a4 3f a5 be 9e fb 92 be c4 d6 29 3e
       0.26456815 -0.32275116 -0.28707594 0.16585833
0003d0 79 d6 30 be 5a 83 9e 3e b5 3b 0a 3e c0 f3 2d 3e
       -0.17269315 0.30959588 0.13499339 0.16987514
0003e0 42 b2 fe 3e 52 0d c7 bd 56 2a 50 be c9 23 16 3d
       0.49745375 -0.097193375 -0.2032865 0.03665522
0003f0 4b 2d 17 be 1f 88 1d be 6c fa 22 3e 66 7d e7 bb
       -0.14763372 -0.15383957 0.15915841 -0.007064509

linear_layer_1.bias f4 [256]
000000 59 a2 82 3e 1d 27 d5 bb fc 61 37 3e d2 91 1e 3e
       0.25514486 -0.006504907 0.17908472 0.15485314
000010 90 ff c8 3e dc 88 c8 3e 37 49 ef be b3 36 50 be
       0.3925748 0.39166915 -0.46735546 -0.20333366
000020 8e ed af 3c 46 55 e0 3d bd 7a 05 be 8a 2e ae bd
       0.02147558 0.109537646 -0.13035102 -0.0850497
000030 5c e6 60 3d 33 63 74 3d 96 fc 58 3e dd 7d fe 3e
       0.054907188 0.059664916 0.21190104 0.497054
000040 f1 ee b7 be 51 b0 2b 3e c2 12 89 be 70 9e 42 be
       -0.35924485 0.16766478 -0.26772124 -0.19005752
000050 90 17 57 3e fd 7b a1 be 7e dc a6 be c9 61 56 3e
       0.21005082 -0.31539908 -0.32590097 0.2093574
000060 96 0c 35 bc 86 80 b2 bd 1a 89 6e be b4 04 eb bd
       -0.011050364 -0.0871592 -0.23294488 -0.114755064
000070 a3 db bb bd 0d a7 27 bd ff 8f 42 be 66 25 3f be
       -0.09172752 -0.040930796 -0.19000243 -0.1866661
000080 24 38 20 be e6 00 04 3e fa 25 61 bd d9 a7 c4 3d
       -0.15646416 0.12890968 -0.054967858 0.09602327
000090 bb 9b 85 bc 16 a3 4c be be 14 c6 be 81 d8 ab 3d
       -0.01630961 -0.19984087 -0.386877 0.08390904
0000a0 94 87 14 3e 5c f1 23 be 3e a8 68 3e c8 f2 c5 3e
       0.14504844 -0.1601004 0.2272043 0.3866179
0000b0 f4 ae ec bd 64 6a 77 bd 9e f2 41 bc 07 72 13 3f
       -0.11556807 -0.060404196 -0.01183763 0.57595867
0000c0 6b 66 cc bd 2d 8c 28 bd 02 78 99 3c ac ba 37 3d
       -0.09980472 -0.041149307 0.018733982 0.04485576
0000d0 a2 c7 0d be c5 4a 43 be 23 06 ca 3e 0d fa 27 be
       -0.13845685 -0.19071491 0.39457807 -0.1640398
0000e0 5b 04 02 be c3 9c 8d 3e 00 07 6b be be 7c cc bd
       -0.12696974 0.27658662 -0.22951889 -0.0998473
0000f0 df dd eb b9 9b 67 97 3e 58 ba bc 3d 9c 32 fb bd
       -0.00044988 0.29571232 0.0921523 -0.12265512
000100 ac 13 72 be 95 75 e0 3e 27 ef 29 3e bd e6 0d 3e
       -0.23640317 0.43839708 0.16595136 0.13857551
000110 db 38 fe 3e 2f 88 03 be 2c 41 84 be 86 68 9c bd
       0.49652752 -0.12844919 -0.25830972 -0.07637124
000120 4a 43 a9 3e 8c 3c 3a be a5 d8 82 be 57 6b b4 bd
       0.3305915 -0.1818716 -0.25555912 -0.08809536
000130 4c 05 2c 3b c9 05 42 3d 92 35 19 3e ef da c8 3e
       0.0026248274 0.0473688 0.14961842 0.39229533
000140 a4 89 e5 3d f7 75 3e be c7 9a c4 be 3b a5 3d be
       0.112078935 -0.18599688 -0.38399336 -0.18520062
000150 a6 b3 c6 3e e2 40 2e 3e 67 28 e3 3d 3e bb ad 3c
       0.38808936 0.17016938 0.110916905 0.021207448
000160 e1 fc e2 3d a1 aa 38 3e a8 40 4d be 13 c8 08 3e
       0.11083389 0.1803384 -0.20044196 0.13357572
000170 51 7f 82 be 71 67 ed bd 56 9f 72 be b5 c7 0e be
       -0.2548776 -0.115919955 -0.23693594 -0.1394337
000180 77 2a 11 3c 41 f6 73 be 31 f6 a6 3e fc 46 5f be
       0.008860222 -0.23824407 0.32609704 -0.21804422
000190 ee ca 36 bd ec ce 5f 3d 2e 41 80 be d8 36 57 be
       -0.044627123 0.054640695 -0.25049728 -0.21017015
0001a0 bb 11 04 3e 7c 56 26 be 7f 8b 0d 3d 82 d7 8e bd
       0.12897389 -0.16243929 0.034556862 -0.069746986
0001b0 78 2a 90 bd f2 9e 19 3e 01 44 a8 3d dc 2b 18 be
       -0.0703935 0.15002039 0.08216096 -0.14860481
0001c0 15 d0 99 be 40 64 17 3c 5d 12 a1 bd d8 4e b3 3b
       -0.30041566 0.00924021 -0.07864831 0.0054720454
0001d0 69 a5 76 bd 5a 01 15 be f1 80 10 3e 55 71 73 be
       -0.06021634 -0.14551297 0.14111687 -0.23773701
0001e0 e7 46 01 bc c9 e3 ec bd 58 d4 92 be 99 33 0a 3e
       -0.00789044 -0.11566884 -0.2867763 0.13496245
0001f0 db fb 98 bc e2 6b 00 bd 8c 0b 65 3d c4 14 a5 3d
       -0.018674782 -0.031352885 0.055919215 0.08060601
000200 46 c0 2a 3e 59 14 06 3e 66 68 ed 3d 49 b3 80 be
       0.16674909 0.130937 0.11592178 -0.25136784
000210 9e a8 1f be 63 e4 77 be 7c 64 da bc a5 bd 8c be
       -0.15591666 -0.24208216 -0.026659243 -0.27488437
000220 10 11 cd bc 78 23 93 3e 04 3d 1f be cc c1 bb bc
       -0.02503255 0.28737998 -0.1555062 -0.022919558
000230 70 ec 65 be 91 5c b1 be 2c e5 97 3d 25 fd 7f 3c
       -0.22453475 -0.34640935 0.07416758 0.015624319
000240 59 ae 1c be d1 38 db 3c b9 ce 76 bd d9 8e 0c 3f
       -0.15300883 0.02676049 -0.06025574 0.5490547
000250 8f 57 04 3e 58 da bc be ea d2 4d 3c 37 f7 1d bd
       0.12924026 -0.36885333 0.012562493 -0.03856584
000260 27 ff ab bd c2 cd 42 be ac 5e 8d 3d d7 bf 95 bd
       -0.08398276 -0.19023803 0.06902823 -0.07311981
000270 c2 64 86 bc 2d ab 31 3e 27 81 a6 be fe 35 10 bd
       -0.016405467 0.17350455 -0.3252041 -0.03520774
000280 e3 37 78 3e c1 22 d1 bd c1 ef a8 be 60 37 c8 be
       0.24240069 -0.10211707 -0.32995418 -0.39104748
000290 90 ff fe 3d c8 d1 4e be 63 4b ac bc 21 32 0e be
       0.124510884 -0.20197213 -0.021032041 -0.1388631
0002a0 ea e0 e0 be c3 52 d5 bd 68 05 20 be 47 d6 da bd
       -0.43921596 -0.10416176 -0.15627062 -0.106854014
0002b0 a9 e6 e2 bc 7c f9 a5 be de 2e 41 be 6f 93 45 3d
       -0.027697878 -0.32416904 -0.18865535 0.048236307
0002c0 e7 10 19 be 0b 01 d6 3d 91 1e 6d 3e c1 3b a8 3d
       -0.14947854 0.10449418 0.23156191 0.08214522
0002d0 47 7b 37 be 21 b8 1f bd e2 60 91 bd e5 83 05 3e
       -0.1791812 -0.03899396 -0.07098557 0.13038595
0002e0 7a a3 22 be 9c ff 7f 3e 01 ed 11 be 89 12 9e be
       -0.15882674 0.24999851 -0.14250566 -0.30873516
0002f0 89 7d 15 3d 69 4b c5 bd 66 aa 3c be 6e d0 d4 bc
       0.036496673 -0.09633524 -0.18424377 -0.025978293
000300 96 b2 e1 bd ae 12 87 bd 36 24 01 bd 39 1d 60 be
       -0.11020391 -0.0659536 -0.031528674 -0.21886148
000310 83 32 85 bd bb ee 35 bd 21 84 ee bd c4 aa e3 be
       -0.06503775 -0.044417124 -0.11646295 -0.4446622
000320 bd c5 8a be 4b fe 34 be 62 92 9f be cc 27 83 be
       -0.27103987 -0.1767513 -0.3116637 -0.256163
000330 ce 4d 44 be 35 93 c3 3b f9 77 1f be 88 a1 0d be
       -0.19170305 0.005968476 -0.1557311 -0.1383115
000340 4e a2 e1 bd 15 f7 87 be bd de b1 bd 56 4e c6 bd
       -0.11017285 -0.26555696 -0.08685062 -0.0968291
000350 ea d5 b6 bd b9 26 a4 3e 2d 9c c6 be bd 7a f2 3d
       -0.089275196 0.32060793 -0.38791028 0.11839817
000360 d1 ce 88 3d b3 0b 8f be 15 99 89 3e cc 87 fa bd
       0.06680072 -0.27938613 0.26874605 -0.122329324
000370 80 9a ae 3d 29 b4 6d be e6 cb 11 be 82 01 89 3e
       0.08525562 -0.23213257 -0.14237937 0.26758963
000380 e8 2d e7 3e 0e 97 98 be e4 cd b2 bd 7c 68 90 be
       0.4515221 -0.29802746 -0.08730677 -0.28204715
000390 a0 a7 cd bd 84 53 b2 be fb 63 57 3d db 0f bf 3d
       -0.100417376 -0.34829342 0.052585583 0.09329196
0003a0 8e 59 86 3e 87 55 3a bd 06 90 e7 3d 2e 08 ac 3d
       0.262402 -0.04549172 0.11306767 0.08399998
0003b0 2d d6 46 be 66 d7 51 3c 3c 45 74 be b4 92 a5 be
       -0.19417639 0.012807703 -0.23854536 -0.32338488
0003c0 2a 08 b5 bd a4 cc aa be 86 bb 05 be ca fa 05 3e
       -0.08839448 -0.33359253 -0.13059816 0.1308395
0003d0 46 84 fe 3d b6 53 3d 3e 93 62 9f be ea 39 26 3c
       0.12427573 0.18488964 -0.31129894 0.010145644
0003e0 17 2d 60 bd bd 8d 25 3e 49 d5 00 3f e8 91 ae bc
       -0.0547305 0.1616735 0.5032545 -0.021309808
0003f0 47 28 13 bd 31 68 c8 bd 3a 7e 34 3e d6 03 e5 3d
       -0.035927083 -0.09785498 0.17626277 0.11182372

linear_layer_2.weight f4 [128, 256]
000000 99 8a 94 bc 5b d8 4a 3c a6 a1 a3 3c 39 0b a6 bd
       -0.018132495 0.012380685 0.01997454 -0.08107609
000010 d9 26 ea bc 18 65 98 bd e5 23 68 3d 7d 79 d0 3c
       -0.028582977 -0.07441157 0.056674857 0.025448555
000020 39 8d 54 bd 05 3a 9f bd c1 b1 0a bd 32 07 89 3c
       -0.051892493 -0.07774738 -0.033860926 0.016727064
000030 f1 bc 74 bc 94 ad ec 3a 99 89 f2 bc 7f 9a 54 bd
       -0.014937625 0.0018057101 -0.029606627 -0.05190515
000040 9d 95 39 3c 25 69 83 bd 46 e8 31 3c e5 05 19 3d
       0.0113271745 -0.06416539 0.010858601 0.037359137
000050 49 9f 59 3d 16 59 e8 bc 0d 53 8c bd a5 53 08 3d
       0.05313042 -0.028362792 -0.06851778 0.033282895
000060 31 a8 b3 3b dd 20 87 bd 6b 0f 84 bb 2f da a3 bb
       0.0054826965 -0.06598065 -0.0040301583 -0.0050003747
000070 ad 84 65 bd aa d5 9d bd 89 69 ce bc 6d f1 82 3b
       -0.056034733 -0.07706769 -0.025196807 0.0039960654
000080 dd 94 2a 3c 64 e3 b3 bd 9d 24 37 3d ef 2f 37 3d
       0.010411468 -0.08783606 0.04471265 0.044723447
000090 ae 84 e8 3c f8 e9 61 3d 27 6c b6 bd 66 df 27 bd
       0.02838358 0.05515477 -0.08907347 -0.040984534
0000a0 3c ec 89 3c 52 be ca 3b 9c 54 06 3d 57 d4 48 bd
       0.016836278 0.0061872387 0.032795534 -0.049030628
0000b0 78 33 f3 3b 6c e4 59 bc bf 9f 80 bd d1 1a 39 3c
       0.007421907 -0.013299089 -0.06280469 0.011297897
0000c0 05 2d 95 3b 67 1b 33 bd e5 af b9 bd 24 cd 28 bc
       0.004552486 -0.043727305 -0.09066752 -0.010302816
0000d0 a3 02 2f bd f3 ad 76 bd f7 b4 8c bd d6 8d 8b bc
       -0.042727124 -0.060224485 -0.06870454 -0.017035406
0000e0 3e c1 0c bc 44 90 0a bd 1d 08 d7 3c 41 ef 36 bd
       -0.008590994 -0.03382899 0.026248986 -0.044661764
0000f0 88 2e 89 bc 3c e6 3b 3b ca 7b 08 3c 45 8e 21 bb
       -0.01674582 0.0028671166 0.008330295 -0.002465145
000100 ea f4 36 3d 1f 58 d2 3c f8 a5 29 bd 40 23 0a 39
       0.044667162 0.025676785 -0.041418046 0.00013173837
000110 56 e5 5b 3c 32 30 a0 bd af 7f d9 bc 94 6c 4b bd
       0.013421377 -0.078216925 -0.026550142 -0.049664095
000120 77 4c f9 bb 2f 5b fb 3c fc ca e6 3c c0 7b f8 3b
       -0.0076079923 0.030683128 0.028172962 0.0075831115
000130 10 28 be bc dc 0d 11 bd 73 ba 2e 3c 79 d7 b3 3b
       -0.023212463 -0.035413608 0.01066457 0.005488333
000140 16 1a 56 bd 6a e1 ff bc 82 ee 38 3d 43 b1 f0 3b
       -0.05227097 -0.031235415 0.045149334 0.00734535
000150 b3 e5 3d bd be 02 80 bd 96 7d bb bd 3e b9 95 bd
       -0.046361636 -0.06250523 -0.09154813 -0.07310723
000160 be c1 38 bd 9b 11 dd 3c 69 2d 60 bc d0 68 53 bd
       -0.045106642 0.026985934 -0.013682702 -0.05161363
000170 36 03 24 bd 68 b3 d9 3c 15 65 8c bd 1b 9f a4 bd
       -0.040042125 0.026574805 -0.06855217 -0.080381595
000180 c2 22 f7 3b 38 80 eb bc 86 03 06 bd 91 9c 17 3d
       0.0075419853 -0.028747663 -0.032718204 0.037014548
000190 3a 4e da bc c4 ad b6 bd 57 9b fd bc 92 01 4d bd
       -0.02664863 -0.08919862 -0.03095786 -0.050050326
0001a0 9d cd c0 3b 3b eb cc bc a5 96 f5 3b 02 a4 34 3d
       0.005883886 -0.02501451 0.007494765 0.044101723
0001b0 0f 36 0f 3d 2a 09 8a bc e8 c0 ab 3b 85 b8 50 bd
       0.034963664 -0.016850073 0.005241502 -0.05095722
0001c0 01 9f f5 3c fe 96 d2 3c af 61 83 bd ab 00 c6 bd
       0.029983046 0.025706764 -0.06415116 -0.09668096
0001d0 b0 14 5e ba 05 48 01 3d c1 8c b8 bd 38 25 4c bd
       -0.00084717106 0.031562824 -0.09011222 -0.049840182
0001e0 a7 d9 bd bc b2 b9 63 bd 82 45 04 bd 92 3e 33 3c
       -0.023175074 -0.055597015 -0.03229285 0.010940211
0001f0 33 8a f8 bc fc 48 79 bc 42 d9 3f bd 4f 5f ec bc
       -0.030339336 -0.015215155 -0.046838053 -0.02885404
000200 8e e0 1b bd 43 51 56 bd 1f 9f 6a bc 9d 21 56 bd
       -0.03805595 -0.05232359 -0.014320164 -0.05227815
000210 b2 8a 39 3d 5f ec a1 bb 0b 3d 36 bd a0 a7 61 3d
       0.045298286 -0.0049415077 -0.04449181 0.0550915
000220 da f5 c1 bc 4e a3 19 bd 5d 6b 1c 3d b6 23 b7 bd
       -0.023676801 -0.037509255 0.038188327 -0.08942358
000230 10 68 c2 bb 72 68 34 bd f9 d0 c2 bd b5 4a 66 bc
       -0.0059328154 -0.04404492 -0.095125146 -0.0140558975
000240 04 96 fb 3c e0 d5 72 bd e9 c6 b2 bd 1e 87 4d bc
       0.030711181 -0.059286 -0.08729345 -0.0125444215
000250 df be 84 bc 73 47 94 3d 7c 68 1f 3d 38 5b 18 3d
       -0.016204296 0.0724019 0.038918003 0.037196368
000260 bf 72 02 3c 03 72 f7 bb fd 9b 5e bd 18 76 47 bd
       0.007961928 -0.007551433 -0.05434798 -0.048696607
000270 01 60 91 3c b0 a9 db 3b 96 1b a0 3c f4 4e 91 bd
       0.017745974 0.006703578 0.019544404 -0.07095137
000280 36 b4 8c bd b0 53 78 bc e8 26 1c bd 60 25 d4 bb
       -0.0687031 -0.015156671 -0.03812304 -0.006474182
000290 58 ff 8a 39 01 cb c9 bc cf f2 4f 3a 61 f4 fc 3c
       0.00026511657 -0.024632933 0.00079326046 0.030878248
0002a0 d9 d7 cf bb 76 fa 47 3c 88 ae 50 bd 60 62 4b bd
       -0.0063428697 0.012205711 -0.050947696 -0.049654365
0002b0 a2 3d d0 bb f1 78 41 3d bf d5 60 bd be 42 8e 3b
       -0.0063550035 0.04723448 -0.054891344 0.0043414524
0002c0 9f ee a7 3c bd 7c ba 3b fc 5b 0f bd 1b 2d 21 bd
       0.020499526 0.0056911395 -0.034999833 -0.039349657
0002d0 67 00 64 bb cc 3e 8f bd 0f 84 36 3d d4 4d 90 bc
       -0.003479028 -0.069943994 0.044559535 -0.017615236
0002e0 51 44 d2 bc 45 df a0 bd bf 2d 9d 3c 04 27 57 bd
       -0.025667341 -0.07855085 0.019186852 -0.052527443
0002f0 8d 63 a3 3c b4 40 03 bd f4 5f 29 bd ba 5d 1c 3d
       0.01994493 -0.032044128 -0.041351274 0.038175322
000300 ab 28 24 3d bc cc 72 3d 7c de 16 bc c8 94 2d 3d
       0.040077846 0.05927728 -0.009208318 0.042378217
000310 f1 1c c6 bc f8 8a 40 bd cb 98 7a bd b0 31 85 3c
       -0.024183722 -0.04700753 -0.06118087 0.016259044
000320 5a 17 63 bd b6 45 36 bd 82 86 f5 bb d4 9e f7 bc
       -0.05544219 -0.044500075 -0.007492841 -0.030227102
000330 78 ec 7f 3d 89 6b 97 3c 45 1d 32 3d e1 9d 1c bc
       0.062481374 0.018483894 0.043484945 -0.009559126
000340 76 58 e8 bc b6 99 9a 3b 43 3d 90 bd 31 24 45 bd
       -0.028362494 0.004718031 -0.07042935 -0.048130218
000350 79 b2 a0 bd 03 95 7b bd a7 78 d1 3b f9 a5 68 bc
       -0.07846541 -0.061421406 0.0063925567 -0.014199727
000360 cc ce c2 bd 80 e9 84 bb c2 96 bd 3b 15 e4 1e bb
       -0.095120996 -0.0040561557 0.005785794 -0.0024244834
000370 62 93 91 bd 9e 1a 23 bd 1d 58 32 3d 48 23 19 bc
       -0.07108189 -0.039820306 0.043541063 -0.009346791
000380 da cf 06 bd df 0f 44 bd 4c a2 55 bd f7 f3 9f bd
       -0.032913066 -0.0478667 -0.05215673 -0.078102045
000390 74 a2 a6 bc bb af 1a 3c 1b fc 94 3c c4 83 f0 3b
       -0.020341136 0.0094413115 0.01818662 0.0073399264
0003a0 68 1f b3 3c c8 dd a9 bc 45 7b f2 3c 11 8a 90 3c
       0.021865562 -0.020735636 0.029599795 0.01764396
0003b0 96 85 14 bd d5 20 74 bd 44 b5 54 bc 94 15 e7 bc
       -0.03626021 -0.059601624 -0.01298267 -0.028208531
0003c0 f7 0c 8f bd 75 90 ca bc 6c 95 b9 bd a8 ad d8 3b
       -0.06984895 -0.024727086 -0.09061703 0.0066124983
0003d0 61 b9 8e bd 5d 4e f3 bb 05 5a de 3c e1 7a 07 bc
       -0.06968952 -0.007425113 0.027142534 -0.008269043
0003e0 ef a1 b6 bd ce 6c 8c bd 86 61 4f bd aa 44 b0 bc
       -0.08917605 -0.0685669 -0.050630115 -0.021517117
0003f0 97 f1 29 3c b8 dc 34 bd d1 c3 aa bb 6b 4f 86 bd
       0.010372541 -0.044155806 -0.0052113314 -0.065581165

linear_layer_2.bias f4 [128]
000000 2c 6d 4f bc b9 9d 91 3c a9 77 58 bd 82 9f a7 bd
       -0.012660306 0.017775403 -0.05284849 -0.081847206
000010 f1 b1 95 bd 30 c0 3e bc 61 5f b7 bd a1 da 4a bd
       -0.0730933 -0.011642501 -0.08953739 -0.049524907
000020 b8 82 3a 3c 13 60 89 bb 1f 10 a4 3e 72 40 6d bd
       0.011383705 -0.004192361 0.3204355 -0.057922788
000030 e0 3a ac bc 94 d1 e1 bc cf 8d 86 b9 5a 41 94 bd
       -0.021024168 -0.027565755 -0.00025664127 -0.07239027
000040 ec d9 64 bd 59 b8 03 bd 95 ce b0 bc 0f 0c 7a bc
       -0.05587189 -0.03215823 -0.021582881 -0.015261664
000050 d7 a4 3b 3e 08 f9 55 3c 9d 31 8c bd d4 20 c4 3e
       0.183246 0.013059862 -0.068454005 0.38306296
000060 7f fa cd bd b6 06 4b bd f2 b5 d4 bd 08 aa 83 3f
       -0.10057544 -0.049566947 -0.10386266 1.0286264
000070 ba 07 55 bc 7d ec 9b bd 63 4f 8d bd 99 d1 b6 bd
       -0.01300233 -0.07613466 -0.068999074 -0.08926696
000080 d5 a4 a5 bd 00 ee 8a 3c 99 ed 4f bd dd e6 23 bd
       -0.0808808 0.01695919 -0.0507637 -0.04001509
000090 34 48 f8 3e 80 0c 7e bd 6a ba a0 3c 7f 54 5d bd
       0.48492587 -0.06202364 0.01962014 -0.05403566
0000a0 d8 cb 44 bd 69 97 bb bd b2 59 6b bd 29 f3 fc bc
       -0.048045963 -0.091597386 -0.057458587 -0.030877667
0000b0 d6 4b bf bd 25 7f bc ba 9c 49 a9 3e 9d 8d a1 bd
       -0.093406364 -0.0014381154 0.33063972 -0.07888339
0000c0 cd e7 e0 bc 4a f2 6e bd 3f 47 8d bd 92 05 4e 3d
       -0.027454281 -0.058336534 -0.06898355 0.05029828
0000d0 6d e0 48 3c 5e c8 c4 bd f7 37 ff bc 7c 97 94 bd
       0.0122605385 -0.096085295 -0.031154616 -0.07255456
0000e0 9e c8 73 bd c5 8e 94 bd 1c db c2 bc d8 16 9d bd
       -0.059517495 -0.072537936 -0.02378612 -0.07670373
0000f0 31 63 ab 3a e7 69 10 3c 96 67 b6 bd 63 5a ec 3c
       0.0013075826 0.008814312 -0.08906476 0.028851693
000100 a6 00 0c bc 3a b7 38 bd 7b c1 ef 3a 5f d8 13 3d
       -0.0085450765 -0.045096613 0.0018291915 0.03609502
000110 14 f8 aa bc 5a df b0 3c 0f 48 c6 3b 23 30 ab 3c
       -0.020870246 0.021590877 0.0060510705 0.020896977
000120 6f 93 13 bd 42 b2 54 bb 31 49 1d 3d cb fa b2 bc
       -0.036029276 -0.0032454883 0.03839988 -0.021848103
000130 85 4d c2 bd 93 11 bd bd 79 ef 05 bc e6 9f 04 bc
       -0.09487442 -0.09231868 -0.0081747705 -0.008094763
000140 7a ca 89 bc 16 7a 97 bd c2 4d d1 bb c3 0a 23 bd
       -0.016820181 -0.07396333 -0.0063874433 -0.039805185
000150 f6 b0 ff 3b 66 a8 9a bd 89 ab 3f bd 96 35 a6 bd
       0.007803078 -0.07551651 -0.046794448 -0.081156895
000160 c7 cc b3 bd 99 55 cc 3c a6 ca 8b bd 36 dd 31 bd
       -0.087792926 0.02494316 -0.068257615 -0.043423854
000170 63 ec c7 bd 7a bc a3 bd 92 78 b5 bc 57 30 7e 3c
       -0.09761884 -0.079949334 -0.022152219 0.015514455
000180 86 d5 4e bd ed d3 02 be 89 ab 59 bd f2 fd e6 3e
       -0.0504966 -0.12776156 -0.053142104 0.4511562
000190 7b 56 b5 bd 13 3d 93 bd 03 4c ef bb 3f 61 3a bd
       -0.088543855 -0.07189383 -0.0073027625 -0.045502897
0001a0 e7 9c 54 bd c3 dd dc bc 0a 43 3a bd b0 4d 9a 3c
       -0.051907446 -0.026961213 -0.04547409 0.018835872
0001b0 e0 71 81 bd b7 00 0e bd ed f3 b7 bd 94 be 90 ba
       -0.06320548 -0.03466865 -0.08982072 -0.0011043125
0001c0 c4 e7 c6 3e 19 ca 54 bc a8 c0 70 bd 7e 59 53 bb
       0.38848698 -0.012987637 -0.05877748 -0.0032249386
0001d0 c1 a6 8f bc cd a6 50 bd 81 22 a3 bd b2 5d a0 bd
       -0.01753557 -0.050940324 -0.079655655 -0.07830371
0001e0 9d 77 a6 bd db 0b 84 bd f5 89 3f bd 32 9f af bd
       -0.08128283 -0.06447574 -0.046762425 -0.08575286
0001f0 6e 24 62 bd 29 17 c7 bd cd 8b 99 bd 4c cc ae bd
       -0.055210523 -0.09721214 -0.07497368 -0.0853506

linear_layer_3.weight f4 [3, 128]
000000 95 5b fd 3a eb 41 76 be 0c 88 55 3d ce 97 2f 3d
       0.0019329662 -0.24048583 0.052131698 0.04286938
000010 bc 94 5f bb 4f cb 76 3c a9 c3 24 bd 05 05 b3 3d
       -0.0034115752 0.015063121 -0.04022566 0.08741192
000020 12 58 67 bd d0 3e 14 3d c2 0e 03 3f 1e 82 60 3c
       -0.056480475 0.036192715 0.51194394 0.013702897
000030 f3 c1 fc bb e5 cf 32 3c f4 36 b0 3d 3c 63 11 3d
       -0.0077135502 0.010913824 0.086042315 0.035495028
000040 80 6d b5 3a 65 83 8c 3d 86 1e 78 3d df 06 bd 3c
       0.0013841838 0.06860999 0.060575984 0.023074565
000050 9a 18 8e 3e 64 3c a5 3c b8 92 57 be 57 0b af 3e
       0.27753145 0.020170398 -0.21052063 0.3418834
000060 8b 07 a5 bd dd 92 60 bd 0e b7 5c bc 25 2b 3c 3e
       -0.08058079 -0.05482756 -0.013471378 0.18375833
000070 43 50 97 3c df 10 b1 bd 2a 9d 27 3d c5 62 3a bd
       0.018470889 -0.08645796 0.040921368 -0.04550435
000080 20 11 12 3d 11 86 9a bd 0c 95 8e bd 8e 0f 99 bd
       0.035660863 -0.075451024 -0.06962022 -0.0747367
000090 50 11 d0 3e 7f 18 96 3d 6f 75 96 3d 92 01 67 bd
       0.40638208 0.07328891 0.073466174 -0.056397982
0000a0 34 b4 98 3d 8b 10 e5 bc ac ab 1d bd e2 6d 40 3d
       0.07456246 -0.02796199 -0.038493797 0.046979792
0000b0 fe 39 74 bd 5f 80 1f bc 15 a9 8b 3e b5 6c b0 bc
       -0.05962562 -0.009735196 0.27277437 -0.02153621
0000c0 61 18 9e 3c 43 08 a0 be c6 a4 42 3d cc 80 5b be
       0.019298734 -0.31256303 0.04752042 -0.21435851
0000d0 bf 74 57 3d 99 21 7d bd e0 f4 00 bd f8 04 97 bc
       0.052601572 -0.06179962 -0.03148353 -0.018434986
0000e0 b8 e9 bd 3b e6 e0 34 be 36 95 86 bd 53 cb 9a bb
       0.0057956837 -0.17663917 -0.065714285 -0.004723945
0000f0 30 c1 c7 be 90 32 a7 bc 0f f8 17 bf 2f fb 03 3d
       -0.39014578 -0.020409852 -0.5936288 0.03222197
000100 51 c5 2d 3d b6 72 2d ba ca e1 b4 bd c9 34 28 bd
       0.042424504 -0.00066165195 -0.08832128 -0.041065965
000110 56 63 f1 3c ec da 05 be bd 1a 0c bf 1c 3f d9 bc
       0.029466312 -0.13071793 -0.547283 -0.02651935
000120 c1 b2 e8 3c b7 7a 88 3d 01 5f 87 3d 51 5e bb 3d
       0.028405549 0.06664031 0.066099174 0.09148849
000130 ea 7e a1 3c 43 19 26 bd 83 53 8f 3d 6d e5 3f 3d
       0.019713838 -0.040551435 0.069983505 0.046849657
000140 51 56 cb bc 5e c6 3e bd 20 63 7c bd f5 7c b8 bc
       -0.024821432 -0.046575896 -0.06161797 -0.022520522
000150 c9 aa 2c bd 45 85 a1 bb 7e 19 e7 ba 92 24 13 bd
       -0.04215506 -0.004929217 -0.0017631499 -0.035923548
000160 4d 28 81 bb 53 2f 03 bd 49 d5 30 3b cb 16 95 bb
       -0.003941572 -0.032027554 0.0026982597 -0.0045498363
000170 04 10 9e 3b 13 24 9a 3b 38 91 59 3c a4 24 ec bc
       0.0048236866 0.0047040074 0.013279252 -0.028826065
000180 f6 1c 32 be 41 d3 3c bd 35 e5 6f 3c 6f 0b 05 3f
       -0.1739386 -0.046099905 0.01464205 0.5197057
000190 98 57 b1 3d 16 42 06 bd 29 8f 1c bd 57 de 06 bd
       0.08659285 -0.03277787 -0.038222466 -0.032926884
0001a0 8d 6c 4b 3d 9f e4 3f bd 03 c0 40 bc e3 37 86 bd
       0.04966407 -0.04684889 -0.011764529 -0.06553628
0001b0 23 b0 ca 3c a5 38 09 3d 90 dc 02 bf 0b f7 8a bb
       0.024742192 0.033501286 -0.511178 -0.0042408756
0001c0 7b 7f a1 3e e6 0e c3 bc f1 65 3f bd 90 51 bc 3d
       0.31542572 -0.023810815 -0.04672808 0.09195244
0001d0 b4 16 1f bb ac 51 c8 bc 40 d6 f9 bc 54 9a 1d 3d
       -0.0024275007 -0.024453007 -0.03049767 0.038477257
0001e0 6d 74 15 be 71 d0 6d 3d 49 69 d9 3b 0a a3 64 3d
       -0.14595194 0.058060113 0.0066348654 0.05581955
0001f0 99 17 8a bd 15 6f 91 be 2b 8e 60 bd 37 a8 2f bd
       -0.06742782 -0.2840506 -0.054823082 -0.04288503
000200 fa 7b a8 3b 62 20 8c be c6 e2 d7 bc 14 70 6e 3d
       0.0051417323 -0.27368456 -0.026353251 0.058212355
000210 b6 56 09 3d 53 f0 d2 bc 1b 12 fc bc c9 6c 1c bc
       0.03352996 -0.025749361 -0.030770352 -0.009547421
000220 2c 5c 6a 3d 71 65 7e 3d 37 b0 06 3f 79 e8 99 bb
       0.05721681 0.06210846 0.5261263 -0.0046969024
000230 a1 00 25 3c 98 6d c2 bc 06 71 49 bd 3e c4 4d ba
       0.010070951 -0.023733899 -0.049180053 -0.0007849372
000240 a4 02 2c 3d 63 1d 9d bb 26 51 d3 38 24 44 06 bd
       0.041994706 -0.004794763 0.00010076379 -0.032779828
000250 37 8c 03 bd f5 33 4d bd 7a b8 4d be e8 7f 83 3b
       -0.03211614 -0.05009838 -0.20089903 0.0040130503
000260 51 7e 96 be 5e d9 a1 3c dc db ba 3d 99 19 8b 3e
       -0.29393247 0.019756969 0.09123966 0.27167967
000270 c1 0f af 3c 36 5b 87 bd 24 03 43 bb 59 0f 84 bd
       0.021369817 -0.06609194 -0.002975651 -0.0644824
000280 06 fd a3 3c 5f bc 0a 3c cb c5 05 bc 52 04 8c 3c
       0.020018112 0.008467763 -0.008164833 0.017091904
000290 69 86 6d 3c 6c de 4a 3c ca 18 2b bc 76 2b 44 bc
       0.014497378 0.012382131 -0.010442922 -0.0119732525
0002a0 d5 e9 93 3c 30 c2 09 3d 0a 94 00 3a ec 68 94 bc
       0.018055836 0.033632457 0.0004904872 -0.018116437
0002b0 1a 36 7a be bf 3d cc bc 6a 7b ae be ee 69 f2 3c
       -0.244347 -0.024931787 -0.34078532 0.029591527
0002c0 ac 68 7e bd e3 44 f4 3e f0 52 e8 b9 57 1c 03 3d
       -0.06211154 0.47708806 -0.00044312282 0.03200945
0002d0 b9 7b f9 bb 1e db 79 bd c3 95 5b bc b0 a0 26 3c
       -0.007613626 -0.060999982 -0.013402405 0.010170147
0002e0 c0 5f eb bc 4b 9e 1b bd 80 55 17 3d b4 60 2a bd
       -0.02873218 -0.037992757 0.036946774 -0.04159613
0002f0 ac ab a5 3c ce 57 84 bc 4a 31 33 be 6b b9 91 3d
       0.020223461 -0.01615515 -0.17499271 0.07115444
000300 ce cd c0 bb 29 63 bb 3c 01 18 d5 bb 84 38 e2 be
       -0.005883909 0.022874432 -0.0065031056 -0.44183743
000310 26 72 03 3d de 2f f3 3e 19 ef 2c 3e 7a 02 09 bd
       0.032091282 0.47497457 0.16888084 -0.033449627
000320 a7 63 cd bc 13 9a 9a bd ee 7e 02 bd 60 99 e4 3d
       -0.025071932 -0.075489186 -0.03185933 0.111620665
000330 d6 6a a5 bd 99 27 95 3d 84 a8 2d 3d f9 e8 16 bd
       -0.08077018 0.07282943 0.042397037 -0.036843274
000340 15 ee bd 3b cc e3 4b bc 08 23 af 3c d0 23 4b 3b
       0.005796204 -0.012444448 0.021379009 0.0030996688
000350 54 e4 4a bd 1f fa 9c 3d 6c fe ce bb 2c 04 d0 bc
       -0.049534157 0.07664894 -0.0063169505 -0.025392614
000360 bc cf 54 be 4d 7a 49 bd 2b 28 19 bb 18 d4 87 bd
       -0.2078237 -0.0491889 -0.002336989 -0.066322505
000370 94 0f 41 3d 4d 7e e7 3d e6 bb 9d bd 3e 89 56 bd
       0.047133997 0.11303387 -0.077018544 -0.052376978
000380 8d fd 3e bd 76 73 b3 bd cf 96 55 be 26 03 1f 3d
       -0.046628524 -0.08762257 -0.2085831 0.038821362
000390 33 df 83 3d eb 89 a2 3d 0f 22 8e 3d 57 b9 fa 3b
       0.06439056 0.07936462 0.0694009 0.0076514888
0003a0 f9 cb 12 3d b4 4c 67 3e bc 10 35 3d b3 95 4a 3d
       0.035839055 0.22587854 0.044205412 0.04945917
0003b0 65 dd 81 3b d5 33 20 3d d2 77 16 bf 22 5c 76 3d
       0.00396316 0.03911193 -0.5877658 0.06014646
0003c0 f9 ed 86 bd ec ab d3 bc ce aa 96 bc 67 37 cb 3c
       -0.065883584 -0.025838815 -0.018391993 0.024806691
0003d0 2e 07 d1 be 52 e3 e8 bc 76 5e 8f bb 65 61 46 3b
       -0.4082579 -0.028428707 -0.0043752743 0.0030270454
0003e0 57 d7 82 be 0f e0 9e bc 23 42 5a bd ff 18 a3 bc
       -0.25554916 -0.019393949 -0.05328573 -0.01990938
0003f0 e6 32 86 3d 49 e4 27 be 37 b3 c4 bd 98 15 8d bc
       0.06552677 -0.16395678 -0.09604495 -0.01722221

linear_layer_3.bias f4 [3]
000000 98 e5 b8 3e bd e3 7b bc 46 ec 85 bd
       0.36112666 -0.015374121 -0.06539206
